…
    "import setproctitle\n",
    "import argparse\n",
    "import datetime\n",
    "import socket\n",
    "import uuid\n",
    "import copy\n",
    "import os\n",
    "import sys\n",
    "import torchvision.models as models\n",
    "import torchvision.io\n",
    "import torch\n",
    "import torchvision.transforms.functional as TF\n",
    "from PIL import Image"
   ]
  },
  {
   "cell_type": "code",
   "execution_count": 2,
   "id": "8cd5efce-0821-466b-b124-e89ba6f677ec",
   "metadata": {},
   "outputs": [
    {
     "data": {
      "text/plain": [
       "VGG(\n",
       "  (features): Sequential(\n",
       "    (0): Conv2d(3, 64, kernel_size=(3, 3), stride=(1, 1), padding=(1, 1))\n",
       "    (1): ReLU(inplace=True)\n",
       "    (2): Conv2d(64, 64, kernel_size=(3, 3), stride=(1, 1), padding=(1, 1))\n",
       "    (3): ReLU(inplace=True)\n",
       "    (4): MaxPool2d(kernel_size=2, stride=2, padding=0, dilation=1, ceil_mode=False)\n",
       "    (5): Conv2d(64, 128, kernel_size=(3, 3), stride=(1, 1), padding=(1, 1))\n",
       "    (6): ReLU(inplace=True)\n",
       "    (7): Conv2d(128, 128, kernel_size=(3, 3), stride=(1, 1), padding=(1, 1))\n",
       "    (8): ReLU(inplace=True)\n",
       "    (9): MaxPool2d(kernel_size=2, stride=2, padding=0, dilation=1, ceil_mode=False)\n",
       "    (10): Conv2d(128, 256, kernel_size=(3, 3), stride=(1, 1), padding=(1, 1))\n",
       "    (11): ReLU(inplace=True)\n",
       "    (12): Conv2d(256, 256, kernel_size=(3, 3), stride=(1, 1), padding=(1, 1))\n",
       "    (13): ReLU(inplace=True)\n",
       "    (14): Conv2d(256, 256, kernel_size=(3, 3), stride=(1, 1), padding=(1, 1))\n",
       "    (15): ReLU(inplace=True)\n",
       "    (16): MaxPool2d(kernel_size=2, stride=2, padding=0, dilation=1, ceil_mode=False)\n",
       "    (17): Conv2d(256, 512, kernel_size=(3, 3), stride=(1, 1), padding=(1, 1))\n",
       "    (18): ReLU(inplace=True)\n",
       "    (19): Conv2d(512, 512, kernel_size=(3, 3), stride=(1, 1), padding=(1, 1))\n",
       "    (20): ReLU(inplace=True)\n",
       "    (21): Conv2d(512, 512, kernel_size=(3, 3), stride=(1, 1), padding=(1, 1))\n",
       "    (22): ReLU(inplace=True)\n",
       "    (23): MaxPool2d(kernel_size=2, stride=2, padding=0, dilation=1, ceil_mode=False)\n",
       "    (24): Conv2d(512, 512, kernel_size=(3, 3), stride=(1, 1), padding=(1, 1))\n",
       "    (25): ReLU(inplace=True)\n",
       "    (26): Conv2d(512, 512, kernel_size=(3, 3), stride=(1, 1), padding=(1, 1))\n",
       "    (27): ReLU(inplace=True)\n",
       "    (28): Conv2d(512, 512, kernel_size=(3, 3), stride=(1, 1), padding=(1, 1))\n",
       "    (29): ReLU(inplace=True)\n",
       "    (30): MaxPool2d(kernel_size=2, stride=2, padding=0, dilation=1, ceil_mode=False)\n",
       "  )\n",
       "  (avgpool): AdaptiveAvgPool2d(output_size=(7, 7))\n",
       "  (classifier): Sequential(\n",
       "    (0): Linear(in_features=25088, out_features=4096, bias=True)\n",
       "    (1): ReLU(inplace=True)\n",
       "    (2): Dropout(p=0.5, inplace=False)\n",
       "    (3): Linear(in_features=4096, out_features=4096, bias=True)\n",
       "    (4): ReLU(inplace=True)\n",
       "    (5): Dropout(p=0.5, inplace=False)\n",
       "    (6): Linear(in_features=4096, out_features=1000, bias=True)\n",
       "  )\n",
       ")"
      ]
     },
     "execution_count": 2,
     "metadata": {},
     "output_type": "execute_result"
    }
   ],
   "source": [
    "model = models.vgg16() # we do not specify ``weights``, i.e. create untrained model\n",
    "model.load_state_dict(torch.load('model_weights.pth'))\n",
    "model.eval()"
   ]
  },
  {
   "cell_type": "code",
…
